"backend: tensorflow\nclass_name: Model\nconfig:\n  input_layers:\n  - - input_1\n\
  \    - 0\n    - 0\n  - - input_2\n    - 0\n    - 0\n  layers:\n  - class_name: InputLayer\n\
  \    config:\n      batch_input_shape: !!python/tuple\n      - null\n      - 160\n\
  \      - 240\n      - 3\n      dtype: float32\n      name: input_1\n      sparse:\
  \ false\n    inbound_nodes: []\n    name: input_1\n  - class_name: Conv2D\n    config:\n\
  \      activation: linear\n      activity_regularizer: null\n      bias_constraint:\
  \ null\n      bias_initializer:\n        class_name: Zeros\n        config: {}\n\
  \      bias_regularizer: null\n      data_format: channels_last\n      dilation_rate:\
  \ &id001 !!python/tuple\n      - 1\n      - 1\n      dtype: float32\n      filters:\
  \ 96\n      kernel_constraint: null\n      kernel_initializer:\n        class_name:\
  \ VarianceScaling\n        config:\n          distribution: uniform\n          mode:\
  \ fan_avg\n          scale: 1.0\n          seed: null\n      kernel_regularizer:\
  \ null\n      kernel_size: !!python/tuple\n      - 11\n      - 11\n      name: conv2d_1\n\
  \      padding: same\n      strides: !!python/tuple\n      - 4\n      - 4\n    \
  \  trainable: true\n      use_bias: true\n    inbound_nodes:\n    - - - input_1\n\
  \        - 0\n        - 0\n        - {}\n    name: conv2d_1\n  - class_name: MaxPooling2D\n\
  \    config:\n      data_format: channels_last\n      dtype: float32\n      name:\
  \ max_pooling2d_1\n      padding: valid\n      pool_size: !!python/tuple\n     \
  \ - 3\n      - 3\n      strides: !!python/tuple\n      - 2\n      - 2\n      trainable:\
  \ true\n    inbound_nodes:\n    - - - conv2d_1\n        - 0\n        - 0\n     \
  \   - {}\n    name: max_pooling2d_1\n  - class_name: Conv2D\n    config:\n     \
  \ activation: linear\n      activity_regularizer: null\n      bias_constraint: null\n\
  \      bias_initializer:\n        class_name: Zeros\n        config: {}\n      bias_regularizer:\
  \ null\n      data_format: channels_last\n      dilation_rate: *id001\n      dtype:\
  \ float32\n      filters: 256\n      kernel_constraint: null\n      kernel_initializer:\n\
  \        class_name: VarianceScaling\n        config:\n          distribution: uniform\n\
  \          mode: fan_avg\n          scale: 1.0\n          seed: null\n      kernel_regularizer:\
  \ null\n      kernel_size: !!python/tuple\n      - 5\n      - 5\n      name: conv2d_2\n\
  \      padding: same\n      strides: *id001\n      trainable: true\n      use_bias:\
  \ true\n    inbound_nodes:\n    - - - max_pooling2d_1\n        - 0\n        - 0\n\
  \        - {}\n    name: conv2d_2\n  - class_name: Activation\n    config:\n   \
  \   activation: relu\n      dtype: float32\n      name: activation_1\n      trainable:\
  \ true\n    inbound_nodes:\n    - - - conv2d_2\n        - 0\n        - 0\n     \
  \   - {}\n    name: activation_1\n  - class_name: BatchNormalization\n    config:\n\
  \      axis: -1\n      beta_constraint: null\n      beta_initializer:\n        class_name:\
  \ Zeros\n        config: {}\n      beta_regularizer: null\n      center: true\n\
  \      dtype: float32\n      epsilon: 0.001\n      gamma_constraint: null\n    \
  \  gamma_initializer:\n        class_name: Ones\n        config: {}\n      gamma_regularizer:\
  \ null\n      momentum: 0.99\n      moving_mean_initializer:\n        class_name:\
  \ Zeros\n        config: {}\n      moving_variance_initializer:\n        class_name:\
  \ Ones\n        config: {}\n      name: batch_normalization_1\n      scale: true\n\
  \      trainable: true\n    inbound_nodes:\n    - - - activation_1\n        - 0\n\
  \        - 0\n        - {}\n    name: batch_normalization_1\n  - class_name: MaxPooling2D\n\
  \    config:\n      data_format: channels_last\n      dtype: float32\n      name:\
  \ max_pooling2d_2\n      padding: valid\n      pool_size: !!python/tuple\n     \
  \ - 3\n      - 3\n      strides: !!python/tuple\n      - 2\n      - 2\n      trainable:\
  \ true\n    inbound_nodes:\n    - - - batch_normalization_1\n        - 0\n     \
  \   - 0\n        - {}\n    name: max_pooling2d_2\n  - class_name: Dropout\n    config:\n\
  \      dtype: float32\n      name: dropout_1\n      noise_shape: null\n      rate:\
  \ 0.25\n      seed: null\n      trainable: true\n    inbound_nodes:\n    - - - max_pooling2d_2\n\
  \        - 0\n        - 0\n        - {}\n    name: dropout_1\n  - class_name: Conv2D\n\
  \    config:\n      activation: linear\n      activity_regularizer: null\n     \
  \ bias_constraint: null\n      bias_initializer:\n        class_name: Zeros\n  \
  \      config: {}\n      bias_regularizer: null\n      data_format: channels_last\n\
  \      dilation_rate: *id001\n      dtype: float32\n      filters: 384\n      kernel_constraint:\
  \ null\n      kernel_initializer:\n        class_name: VarianceScaling\n       \
  \ config:\n          distribution: uniform\n          mode: fan_avg\n          scale:\
  \ 1.0\n          seed: null\n      kernel_regularizer: null\n      kernel_size:\
  \ &id002 !!python/tuple\n      - 3\n      - 3\n      name: conv2d_3\n      padding:\
  \ same\n      strides: *id001\n      trainable: true\n      use_bias: true\n   \
  \ inbound_nodes:\n    - - - dropout_1\n        - 0\n        - 0\n        - {}\n\
  \    name: conv2d_3\n  - class_name: MaxPooling2D\n    config:\n      data_format:\
  \ channels_last\n      dtype: float32\n      name: max_pooling2d_3\n      padding:\
  \ valid\n      pool_size: !!python/tuple\n      - 3\n      - 3\n      strides: !!python/tuple\n\
  \      - 2\n      - 2\n      trainable: true\n    inbound_nodes:\n    - - - conv2d_3\n\
  \        - 0\n        - 0\n        - {}\n    name: max_pooling2d_3\n  - class_name:\
  \ Conv2D\n    config:\n      activation: linear\n      activity_regularizer: null\n\
  \      bias_constraint: null\n      bias_initializer:\n        class_name: Zeros\n\
  \        config: {}\n      bias_regularizer: null\n      data_format: channels_last\n\
  \      dilation_rate: *id001\n      dtype: float32\n      filters: 256\n      kernel_constraint:\
  \ null\n      kernel_initializer:\n        class_name: VarianceScaling\n       \
  \ config:\n          distribution: uniform\n          mode: fan_avg\n          scale:\
  \ 1.0\n          seed: null\n      kernel_regularizer: null\n      kernel_size:\
  \ *id002\n      name: conv2d_4\n      padding: same\n      strides: *id001\n   \
  \   trainable: true\n      use_bias: true\n    inbound_nodes:\n    - - - max_pooling2d_3\n\
  \        - 0\n        - 0\n        - {}\n    name: conv2d_4\n  - class_name: Activation\n\
  \    config:\n      activation: relu\n      dtype: float32\n      name: activation_2\n\
  \      trainable: true\n    inbound_nodes:\n    - - - conv2d_4\n        - 0\n  \
  \      - 0\n        - {}\n    name: activation_2\n  - class_name: BatchNormalization\n\
  \    config:\n      axis: -1\n      beta_constraint: null\n      beta_initializer:\n\
  \        class_name: Zeros\n        config: {}\n      beta_regularizer: null\n \
  \     center: true\n      dtype: float32\n      epsilon: 0.001\n      gamma_constraint:\
  \ null\n      gamma_initializer:\n        class_name: Ones\n        config: {}\n\
  \      gamma_regularizer: null\n      momentum: 0.99\n      moving_mean_initializer:\n\
  \        class_name: Zeros\n        config: {}\n      moving_variance_initializer:\n\
  \        class_name: Ones\n        config: {}\n      name: batch_normalization_2\n\
  \      scale: true\n      trainable: true\n    inbound_nodes:\n    - - - activation_2\n\
  \        - 0\n        - 0\n        - {}\n    name: batch_normalization_2\n  - class_name:\
  \ MaxPooling2D\n    config:\n      data_format: channels_last\n      dtype: float32\n\
  \      name: max_pooling2d_4\n      padding: valid\n      pool_size: !!python/tuple\n\
  \      - 3\n      - 3\n      strides: !!python/tuple\n      - 2\n      - 2\n   \
  \   trainable: true\n    inbound_nodes:\n    - - - batch_normalization_2\n     \
  \   - 0\n        - 0\n        - {}\n    name: max_pooling2d_4\n  - class_name: Dropout\n\
  \    config:\n      dtype: float32\n      name: dropout_2\n      noise_shape: null\n\
  \      rate: 0.25\n      seed: null\n      trainable: true\n    inbound_nodes:\n\
  \    - - - max_pooling2d_4\n        - 0\n        - 0\n        - {}\n    name: dropout_2\n\
  \  - class_name: InputLayer\n    config:\n      batch_input_shape: !!python/tuple\n\
  \      - null\n      - 3\n      dtype: float32\n      name: input_2\n      sparse:\
  \ false\n    inbound_nodes: []\n    name: input_2\n  - class_name: Flatten\n   \
  \ config:\n      data_format: channels_last\n      dtype: float32\n      name: flatten_1\n\
  \      trainable: true\n    inbound_nodes:\n    - - - dropout_2\n        - 0\n \
  \       - 0\n        - {}\n    name: flatten_1\n  - class_name: Dense\n    config:\n\
  \      activation: relu\n      activity_regularizer: null\n      bias_constraint:\
  \ null\n      bias_initializer:\n        class_name: Zeros\n        config: {}\n\
  \      bias_regularizer: null\n      dtype: float32\n      kernel_constraint: null\n\
  \      kernel_initializer:\n        class_name: VarianceScaling\n        config:\n\
  \          distribution: uniform\n          mode: fan_avg\n          scale: 1.0\n\
  \          seed: null\n      kernel_regularizer: null\n      name: dense_1\n   \
  \   trainable: true\n      units: 10\n      use_bias: true\n    inbound_nodes:\n\
  \    - - - input_2\n        - 0\n        - 0\n        - {}\n    name: dense_1\n\
  \  - class_name: Concatenate\n    config:\n      axis: -1\n      dtype: float32\n\
  \      name: concatenate_1\n      trainable: true\n    inbound_nodes:\n    - - -\
  \ flatten_1\n        - 0\n        - 0\n        - &id003 {}\n      - - dense_1\n\
  \        - 0\n        - 0\n        - *id003\n    name: concatenate_1\n  - class_name:\
  \ Dense\n    config:\n      activation: relu\n      activity_regularizer: null\n\
  \      bias_constraint: null\n      bias_initializer:\n        class_name: Zeros\n\
  \        config: {}\n      bias_regularizer: null\n      dtype: float32\n      kernel_constraint:\
  \ null\n      kernel_initializer:\n        class_name: VarianceScaling\n       \
  \ config:\n          distribution: uniform\n          mode: fan_avg\n          scale:\
  \ 1.0\n          seed: null\n      kernel_regularizer: null\n      name: dense_2\n\
  \      trainable: true\n      units: 4096\n      use_bias: true\n    inbound_nodes:\n\
  \    - - - concatenate_1\n        - 0\n        - 0\n        - {}\n    name: dense_2\n\
  \  - class_name: Dense\n    config:\n      activation: relu\n      activity_regularizer:\
  \ null\n      bias_constraint: null\n      bias_initializer:\n        class_name:\
  \ Zeros\n        config: {}\n      bias_regularizer: null\n      dtype: float32\n\
  \      kernel_constraint: null\n      kernel_initializer:\n        class_name: VarianceScaling\n\
  \        config:\n          distribution: uniform\n          mode: fan_avg\n   \
  \       scale: 1.0\n          seed: null\n      kernel_regularizer: null\n     \
  \ name: dense_3\n      trainable: true\n      units: 4096\n      use_bias: true\n\
  \    inbound_nodes:\n    - - - dense_2\n        - 0\n        - 0\n        - {}\n\
  \    name: dense_3\n  - class_name: Dense\n    config:\n      activation: softmax\n\
  \      activity_regularizer: null\n      bias_constraint: null\n      bias_initializer:\n\
  \        class_name: Zeros\n        config: {}\n      bias_regularizer: null\n \
  \     dtype: float32\n      kernel_constraint: null\n      kernel_initializer:\n\
  \        class_name: VarianceScaling\n        config:\n          distribution: uniform\n\
  \          mode: fan_avg\n          scale: 1.0\n          seed: null\n      kernel_regularizer:\
  \ null\n      name: dense_4\n      trainable: true\n      units: 3\n      use_bias:\
  \ true\n    inbound_nodes:\n    - - - dense_3\n        - 0\n        - 0\n      \
  \  - {}\n    name: dense_4\n  name: model_1\n  output_layers:\n  - - dense_4\n \
  \   - 0\n    - 0\nkeras_version: 2.3.0\n"
